…
ecution":{"iopub.status.busy":"2024-05-30T01:32:01.082940Z","iopub.execute_input":"2024-05-30T01:32:01.083713Z","iopub.status.idle":"2024-05-30T01:32:02.179654Z","shell.execute_reply.started":"2024-05-30T01:32:01.083668Z","shell.execute_reply":"2024-05-30T01:32:02.178371Z"},"trusted":true},"execution_count":8,"outputs":[{"name":"stdout","text":"Model: \"sequential\"\n_________________________________________________________________\nLayer (type)                 Output Shape              Param #   \n=================================================================\nconv2d (Conv2D)              (None, 382, 510, 32)      896       \n_________________________________________________________________\nmax_pooling2d (MaxPooling2D) (None, 191, 255, 32)      0         \n_________________________________________________________________\nconv2d_1 (Conv2D)            (None, 189, 253, 64)      18496     \n_________________________________________________________________\nmax_pooling2d_1 (MaxPooling2 (None, 94, 126, 64)       0         \n_________________________________________________________________\nconv2d_2 (Conv2D)            (None, 92, 124, 128)      73856     \n_________________________________________________________________\nmax_pooling2d_2 (MaxPooling2 (None, 46, 62, 128)       0         \n_________________________________________________________________\ndropout (Dropout)            (None, 46, 62, 128)       0         \n_________________________________________________________________\nflatten (Flatten)            (None, 365056)            0         \n_________________________________________________________________\ndense (Dense)                (None, 256)               93454592  \n=================================================================\nTotal params: 93,547,840\nTrainable params: 93,547,840\nNon-trainable params: 0\n_________________________________________________________________\nNone\n","output_type":"stream"}]},{"cell_type":"code","source":"import tensorflow.keras.layers as layers","metadata":{"execution":{"iopub.status.busy":"2024-05-30T01:32:05.684911Z",
…
24-05-30T01:55:44.418717Z","shell.execute_reply.started":"2024-05-30T01:32:11.061753Z","shell.execute_reply":"2024-05-30T01:55:44.417200Z"},"trusted":true},"execution_count":11,"outputs":[{"name":"stdout","text":"Model: \"classifier\"\n_________________________________________________________________\nLayer (type)                 Output Shape              Param #   \n=================================================================\ninput_1 (InputLayer)         [(None, 384, 512, 3)]     0         \n_________________________________________________________________\nsequential_1 (Sequential)    (None, 256)               93547840  \n_________________________________________________________________\ndropout_2 (Dropout)          (None, 256)               0         \n_________________________________________________________________\ndense_2 (Dense)              (None, 512)               131584    \n_________________________________________________________________\ndropout_3 (Dropout)          (None, 512)               0         \n_________________________________________________________________\ndense_3 (Dense)              (None, 6)                 3078      \n=================================================================\nTotal params: 93,682,502\nTrainable params: 93,682,502\nNon-trainable params: 0\n_________________________________________________________________\nEpoch 1/5\n51/51 [==============================] - 293s 6s/step - loss: 134.6819 - sparse_categorical_accuracy: 0.2104 - val_loss: 1.7713 - val_sparse_categorical_accuracy: 0.2
…
